tiny_char_rnn.pt (torch, 330655 bytes, 7 tensors)

embed.weight f4 [38, 64]
0	0xbf532868	-0.8248353
1	0x3fa9cd88	1.3265848
2	0xbf85a8c0	-1.0442123
3	0xbdfd2ac1	-0.1236167
4	0x403606fb	2.844176
5	0xbd466a3f	-0.048441168
6	0x3d1be324	0.038058415
7	0xbe9b1a3b	-0.3029345
8	0xbf34d6b8	-0.70640135
9	0xbfe4b987	-1.7869118
10	0xbd20c24a	-0.03924779
11	0x403e5ee2	2.9745412
12	0x3fc342b4	1.5254731
13	0xbff6cede	-1.9281881
14	0xbf867263	-1.0503658
15	0xbdbaa381	-0.09113217
16	0xbf9e6849	-1.2375575
17	0x3ede974a	0.434748
18	0x3e2bdd75	0.16783698
19	0xbf819cb8	-1.0125952
20	0xbebdea05	-0.37092605
21	0x3f4709c2	0.77749264
22	0x3f25fad2	0.64835846
23	0x3f5f09f6	0.87124574
24	0x3e850b30	0.25985098
25	0x3fdcbb54	1.7244668
26	0xbddf7a8b	-0.10912045
27	0xbe7c89fe	-0.24662015
28	0xbf3dc343	-0.7412607
29	0xbf217075	-0.6306222
30	0x3cad2a48	0.021138325
31	0xbc8e7fe4	-0.017394967
32	0x3f5208f4	0.8204491
33	0x3f12e36e	0.5737828
34	0x3f54e0bb	0.8315541
35	0xbce54e03	-0.0279913
36	0xbf8119fd	-1.0086056
37	0xbed51f5c	-0.41625488
38	0xbfd0db05	-1.631684
39	0xc03ed505	-2.9817517
40	0xbfb29ddd	-1.3954426
41	0xbf8d6879	-1.1047508
42	0x3fb04be2	1.3773158
43	0xbe44cab0	-0.19217944
44	0x3e908435	0.28225866
45	0xbfdc9e3a	-1.7235787
46	0xbf8369c5	-1.0266653
47	0xbbb5c91d	-0.005547656
48	0xbc1f0421	-0.009705574
49	0x3ec339a3	0.3812991
50	0xbe71f9f2	-0.23630503
51	0x3f54b5ba	0.8308979
52	0xbf8e3285	-1.1109167
53	0xbeb821bc	-0.35963237
54	0xbe90bf48	-0.28270936
55	0x3dee18c4	0.116258174
56	0x3f3984e8	0.72468424
57	0x3eb4055a	0.35160333
58	0xc00dfca4	-2.218545
59	0x3d7498c5	0.059716005
60	0x3e377a9b	0.17917864
61	0xbf40f658	-0.7537589
62	0xbead4287	-0.3383982
63	0xc0031cb8	-2.0486279
64	0xbf8f857f	-1.1212615
65	0x3fd104ed	1.6329628
66	0x3f05a18f	0.52199644
67	0xc010e053	-2.2636917
68	0x3f51990d	0.8187416
69	0x3ec18700	0.3779831
70	0xbea28abe	-0.31746477
71	0xbe1e2121	-0.15442325
72	0x3f9df633	1.2340759
73	0xbf61d369	-0.8821321
74	0xbff86081	-1.9404451
75	0x3f447333	0.7673828
76	0xbeaef355	-0.34170023
77	0xbf918367	-1.1368226
78	0xbf5bc1cd	-0.8584259
79	0xbf49bbf3	-0.7880241
80	0xbf8f4355	-1.1192423
81	0xbf64bbe0	-0.89349174
82	0x3f520fc3	0.820553
83	0x3ef12d98	0.47105098
84	0xbf363421	-0.7117329
85	0xbf3e762d	-0.7439907
86	0x3f8beea0	1.0932198
87	0xbef5c97d	-0.48005286
88	0xbda46df3	-0.08028784
89	0xbeca70bf	-0.39539143
90	0xbf659bf6	-0.896911
91	0x3eb88871	0.36041597
92	0xbfc84265	-1.5645262
93	0x3fbf5aa0	1.4949532
94	0x3edec48d	0.4350933
95	0xbfbfffa3	-1.4999889
96	0xbf381552	-0.7190753
97	0xbf6126fb	-0.87950104
98	0xbf3f11fd	-0.7463682
99	0xbf91aee2	-1.1381495
100	0xbf914a1f	-1.1350745
101	0x3f30e98a	0.6910635
102	0xbf057215	-0.521272
103	0xbf110f32	-0.5666381
104	0xbf8d7669	-1.1051761
105	0xc018b4e7	-2.3860414
106	0xbf4b8276	-0.7949594
107	0x3f0b22f5	0.54350215
108	0x3fcafa0a	1.5857556
109	0xbf8ca5b2	-1.0988066
110	0x3eea200f	0.45727584
111	0xbff87d99	-1.9413329
112	0xbfbdc40e	-1.4825456
113	0x3e5ff094	0.21869117
114	0x3f8b576f	1.0886058
115	0xbf10342d	-0.56329614
116	0xbfb23389	-1.3921977
117	0xbf5eb056	-0.8698782
118	0xbf9d5894	-1.2292657
119	0x3fa6946a	1.3014042
120	0x3d983de6	0.07433681
121	0xbeacd186	-0.33753604
122	0x4014ed1d	2.3269722
123	0x3fb2af40	1.3959732
124	0x3fe9628f	1.8233203
125	0xbf02c03b	-0.5107457
126	0xbc3820a4	-0.011238251
127	0xbd5d9851	-0.05410034
128	0x3faad095	1.3344904
129	0x3ea12f4f	0.31481406
130	0x3f923cc6	1.1424797
131	0x3b978913	0.004624495
132	0xbfd7a756	-1.6847942
133	0xbf7734fb	-0.96565217
134	0x3fa2ded8	1.2724257
135	0x3f6ea017	0.9321303
136	0x4009ae42	2.1512609
137	0x3f5467e7	0.8297104
138	0x3f5460e4	0.82960343
139	0x3e755173	0.23956852
140	0xbe3bc1ab	-0.18335597
141	0x3e86daaa	0.26338702
142	0xbf835a78	-1.0261984
143	0xbf9f4df7	-1.2445668
144	0xbd9d892a	-0.076921776
145	0xbc674322	-0.014115127
146	0xbfde7b13	-1.7381309
147	0xbf004162	-0.50099766
148	0xbf33a236	-0.7016939
149	0x3f17a480	0.5923538
150	0xbf8bc2f8	-1.0918875
151	0x3ffb8f50	1.965311
152	0xbdd225d6	-0.10261123
153	0xbde24d5c	-0.110499114
154	0x3e81b7b8	0.2533548
155	0xbfadaf19	-1.356906
156	0xbe303763	-0.17208628
157	0x3ebfd29c	0.3746537
158	0xbe8ef7ed	-0.27923527
159	0x40360652	2.8441358
160	0xbe0e1d01	-0.13878252
161	0x3fdabfc1	1.7089769
162	0x3eff42f8	0.4985578
163	0x3ec8eac0	0.392416
164	0xbedbadb1	-0.42905954
165	0xbf2f8699	-0.68564755
166	0x3d5f989d	0.054588903
167	0xbed93c89	-0.42428997
168	0x3ed2e2ab	0.4118856
169	0xbe89ceee	-0.26915687
170	0x3f439839	0.7640415
171	0xbf8359a2	-1.0261729
172	0xbfcef8e9	-1.6169711
173	0x3e988237	0.29786846
174	0x3ea94c20	0.3306589
175	0x3f79e4b8	0.9761462
176	0xbfc6ab75	-1.5521075
177	0xbfeb82d5	-1.8399302
178	0xbf16895a	-0.5880333
179	0xbeca1e4e	-0.39476246
180	0xbe491f3a	-0.19640818
181	0xbfb1ba47	-1.3884972
182	0xbfab10bb	-1.3364481
183	0x3e206421	0.15663196
184	0xbf621ad1	-0.8832217
185	0xbf370bee	-0.7150258
186	0xbe95f3c9	-0.29287556
187	0xbff23385	-1.8921973
188	0x3d477649	0.04869679
189	0xbf875449	-1.0572597
190	0x3fad276a	1.3527653
191	0xbf8adb4b	-1.0848173
192	0xbf3fd844	-0.7493937
193	0xbf365893	-0.71228904
194	0x3e73448f	0.23756622
195	0xbf2446ab	-0.6417033
196	0xbd5e6e69	-0.054304514
197	0x3f22d9e0	0.636137
198	0x3f358be4	0.7091658
199	0x3e99c774	0.30034983
200	0xbfd17497	-1.6363705
201	0x3f70132e	0.93779266
202	0xbf84efcd	-1.0385681
203	0xbebdb411	-0.37051442
204	0xbed33dd2	-0.41258103
205	0xbe6369f7	-0.22208391
206	0xbe1859a0	-0.14877939
207	0x3d40099e	0.04688417
208	0x3e87cb65	0.26522365
209	0x3ef56830	0.4793105
210	0xbf4015ce	-0.7503327
211	0x40071ba6	2.1110625
212	0x3f8e8803	1.1135257
213	0xbf0935fb	-0.5359799
214	0xbef2104a	-0.47278053
215	0x3f046731	0.5171996
216	0x3f925ec9	1.1435176
217	0x3f3d49f9	0.73941
218	0x3fa21524	1.2662702
219	0x3f10df01	0.56590277
220	0xbf23c7ec	-0.6397693
221	0xbfab981d	-1.3405796
222	0x4007c265	2.12124
223	0x3f0167a7	0.50548786
224	0xbd2b19e1	-0.041772727
225	0xbd1f221e	-0.038850896
226	0xbf89bf43	-1.0761493
227	0xbfb4992a	-1.4109242
228	0x3f005f1e	0.5014514
229	0x3fe1c49f	1.7638129
230	0xbf7d7541	-0.9900704
231	0xbf2fc8cc	-0.68665767
232	0xbf83c4eb	-1.029447
233	0xbee371fe	-0.44422907
234	0xbfc55799	-1.5417358
235	0xbe44431f	-0.1916623
236	0xc002baa2	-2.0426412
237	0x3ed0a552	0.4075113
238	0x3e3c9047	0.18414412
239	0xbe0bbdf6	-0.13646683
240	0xbf5811c9	-0.8440214
241	0x3fb92924	1.446568
242	0xbe9eddb7	-0.3102853
243	0xbf5f5715	-0.8724225
244	0x3e19aa4e	0.15006372
245	0x3ea06205	0.31324783
246	0xc02a1a6b	-2.6578624
247	0xbf818e9a	-1.0121644
248	0x3f1c29a7	0.61001056
249	0x3eafabd6	0.34310788
250	0xbf8efb43	-1.1170429
251	0x3eb401fc	0.35157764
252	0x3fd96f5f	1.6987113
253	0xbffda995	-1.9817377
254	0xbfaa9dc9	-1.3329402
255	0x3f52c435	0.8233064

rnn.weight_ih_l0 f4 [384, 64]
0	0xbe346c0f	-0.17619346
1	0xbdde8187	-0.10864549
2	0xbd8f35bf	-0.06992673
3	0xbdb37127	-0.087618165
4	0x3d891aac	0.066945404
5	0xbde41f60	-0.11138797
6	0xbe3a0e20	-0.18169451
7	0xbd710444	-0.05884196
8	0x3e67a71a	0.22622338
9	0xbe473ed5	-0.19457562
10	0x3dc011d7	0.09378403
11	0x3e15cd0a	0.14628997
12	0xb995ae9e	-0.00028549595
13	0x3e64cc39	0.2234353
14	0x3d16f0fc	0.036850914
15	0xbd18ba16	-0.03728684
16	0xbd583540	-0.05278516
17	0xbe091bf7	-0.13389574
18	0x3da5fa7c	0.08104417
19	0xbd4cbd16	-0.049985014
20	0x3d7f0976	0.062264882
21	0xbdbf1343	-0.09329846
22	0x3d9542a1	0.07288099
23	0xbe563a1c	-0.20920604
24	0xbdef00fc	-0.1167011
25	0xbadd816d	-0.0016899534
26	0xbd31c4e1	-0.04340065
27	0x3dfaf2d5	0.12253348
28	0xbd76ca74	-0.060251668
29	0xbde67d9b	-0.11254426
30	0x3d767d38	0.06017801
31	0xbe86cc49	-0.26327732
32	0xbe590620	-0.21193743
33	0xbe3c6c0e	-0.18400595
34	0x3e04a47e	0.12953374
35	0x3d0eb80c	0.03484349
36	0x3db70e0e	0.089382276
37	0x3dae7f6c	0.085203975
38	0x3dea10f1	0.114290126
39	0x3d1e2fd2	0.038619824
40	0x3e19bba4	0.15012985
41	0x3d01294d	0.031533528
42	0xbe3ce70a	-0.1844751
43	0x3d218b0e	0.039439254
44	0xbe127145	-0.14301021
45	0xbe268f33	-0.16265564
46	0xbe0372b8	-0.1283673
47	0xbd7f19c3	-0.062280428
48	0xbdfce693	-0.12348666
49	0xbe24b36e	-0.16084072
50	0x3d1f8dcd	0.03895359
51	0x3dc0d983	0.09416487
52	0x3c77bfa6	0.015121376
53	0x3dffabff	0.124839775
54	0x3dd3a846	0.1033483
55	0x3d94671c	0.07246229
56	0xbe254b16	-0.16141924
57	0xbe071204	-0.13190466
58	0x3dea4c31	0.114403136
59	0xbe36c0e9	-0.17847027
60	0x3df01ebb	0.11724611
61	0x3be84973	0.007088834
62	0x3a9e0776	0.0012056667
63	0xbe081167	-0.13287888
64	0x3e21b92a	0.1579329
65	0x3e028481	0.12745859
66	0x3d8fdda1	0.07024694
67	0xbd0e3290	-0.03471619
68	0x3d3ba633	0.045812797
69	0x3d2c7965	0.04210796
70	0x3d8a4b3c	0.06752631
71	0xbd6740fa	-0.05645845
72	0xbc766df0	-0.01504086
73	0xbe3511f9	-0.17682637
74	0xbd1602c4	-0.03662373
75	0xbcc9cb52	-0.024633083
76	0x3d37a6ce	0.04483681
77	0x3d8da9c7	0.06917148
78	0xbc05ad1d	-0.008158949
79	0xbd0f91df	-0.035051223
80	0xbdd52c19	-0.104088016
81	0x3dca3f9f	0.09875416
82	0x3d97dceb	0.07415184
83	0x3dc2adae	0.09505783
84	0xbe2926ec	-0.16518754
85	0xbe2c553b	-0.16829388
86	0x3e0a0544	0.13478571
87	0xbddab504	-0.10679057
88	0xbe2c7737	-0.16842352
89	0xbdd4681a	-0.10371418
90	0x3ded4b07	0.11586576
91	0xbc07e2e1	-0.008293838
92	0xbc0ff876	-0.008787265
93	0xbd73bfec	-0.059509203
94	0x3b213891	0.0024600367
95	0x3dcf90da	0.1013505
96	0x3e020044	0.12695414
97	0x3d1a8896	0.037727915
98	0xbd42912d	-0.04750173
99	0xbdc08af7	-0.094015054
100	0xbd77eec5	-0.060530443
101	0x3e033bbd	0.12815757
102	0x3d18f2c7	0.037340906
103	0xbd469aa6	-0.048487328
104	0xbd48e0af	-0.0490424
105	0xbe3f9082	-0.18707469
106	0xbd9c7398	-0.07639235
107	0xbd045185	-0.032304306
108	0x3d6641b8	0.056215018
109	0xbc8fdc08	-0.017560974
110	0xbdb07c39	-0.086174436
111	0xbe2fa82e	-0.17153999
112	0xbdc523de	-0.09625982
113	0x3ca72e74	0.020407893
114	0x3d8e6873	0.06953516
115	0x3e0e2913	0.13882856
116	0x3bdc2f7f	0.006719529
117	0x3c41c455	0.011826594
118	0x3da09add	0.07842038
119	0x3d945fb3	0.07244816
120	0xbc6e03d3	-0.014527279
121	0xbde46520	-0.111521006
122	0x3d301258	0.042986244
123	0x3bf1eb83	0.0073828115
124	0xbdb37441	-0.08762408
125	0xbd92fce9	-0.07177145
126	0x3c866441	0.016405227
127	0xbe0dd6e9	-0.13851513
128	0xbd2dcbe1	-0.042430762
129	0xbc93cfcf	-0.018043427
130	0xbddc1761	-0.10746647
131	0x3d1f8604	0.038946167
132	0xbdfd251a	-0.12360592
133	0x3d6f23a0	0.058383584
134	0xbe0d13f8	-0.13777149
135	0xbd5b93b4	-0.053607658
136	0xbdcb6534	-0.09931412
137	0xbdc801a8	-0.09765941
138	0xbdbc782f	-0.09202611
139	0xbd6555b0	-0.05598992
140	0x3d9de13a	0.07708974
141	0xbde42336	-0.111395285
142	0xbe12fb46	-0.14353666
143	0x3d9df8d1	0.077134736
144	0xbe485283	-0.19562726
145	0x3d22704c	0.039657876
146	0xbe2b663f	-0.16738223
147	0x3cd72219	0.026261376
148	0xbc9194bb	-0.017771116
149	0xbdf1a7ff	-0.11799621
150	0xbd15bc23	-0.036556374
151	0x3b4fbf72	0.0031699804
152	0xbd3ba081	-0.045807365
153	0x3d587888	0.052849323
154	0xbe0bfce7	-0.13670693
155	0x3e09518d	0.13410015
156	0xbd9acac9	-0.075582094
157	0xbd83305a	-0.06405707
158	0xbcaf49cf	-0.0213975
159	0x3e12dcea	0.14342085
160	0xbe08a263	-0.13343196
161	0x3d830c9d	0.0639889
162	0xbbdfdf85	-0.0068320655
163	0xbd64924c	-0.055803582
164	0xbdfd9e5b	-0.123837195
165	0x3b65a9a3	0.0035043738
166	0xbd933485	-0.07187752
167	0x3da62060	0.08111644
168	0xbd89c90b	-0.06727799
169	0xbe03881a	-0.12844887
170	0x39f26df3	0.00046239755
171	0x3aaeea2e	0.0013344937
172	0x3d42e822	0.04758466
173	0x3d2e4863	0.042549502
174	0x3d9f4cd3	0.07778325
175	0xbdb2e6eb	-0.0873545
176	0xbb064489	-0.0020487627
177	0x3dd3fd49	0.10351045
178	0x3e034660	0.12819815
179	0xbb730853	-0.003708382
180	0xbe64e1d7	-0.22351776
181	0xbe21a639	-0.15786065
182	0xbd8406d1	-0.064466126
183	0xbdbf7d3a	-0.09350057
184	0xbdfe0f8a	-0.124053076
185	0xbd804a02	-0.06264116
186	0x3d12c6b7	0.03583404
187	0x3e097ea2	0.13427213
188	0x3d3fc57e	0.046819203
189	0x38f5c53d	0.00011719249
190	0x3d4e9093	0.050430845
191	0x3dee54c5	0.11637262
192	0xbd002e10	-0.03129393
193	0xbad0a583	-0.0015918467
194	0xbdaa0fad	-0.08303771
195	0x3d7b7ba9	0.06139723
196	0x3cb2f9ec	0.021847688
197	0xbd6578a1	-0.056023244
198	0x3e232972	0.15933779
199	0xbd7e95c4	-0.062154546
200	0xbe1135f8	-0.14180744
201	0x3db43beb	0.08800491
202	0xbac5f5d5	-0.0015103171
203	0xbc8bc5bd	-0.017062062
204	0x3e34d879	0.17660703
205	0x3dfeef77	0.12448018
206	0x3c984dc9	0.018591778
207	0x3dfd28f6	0.12361328
208	0x3d93d3cb	0.07218131
209	0xbc9b0b33	-0.018926239
210	0xbc7911ad	-0.015201968
211	0xbe3eb43a	-0.18623438
212	0x3e6d352a	0.23164812
213	0xbdc009ea	-0.09376891
214	0x3daa02b2	0.08301295
215	0xbdf58fb1	-0.119902976
216	0x3d7efb21	0.062251214
217	0xbde51ca0	-0.111871004
218	0x3e461948	0.19345582
219	0x3dab9b8b	0.08379277
220	0xbe12543f	-0.1428995
221	0x3de42d6b	0.11141475
222	0xbdb7628c	-0.08954343
223	0x3d0f2e06	0.034956
224	0xbd97f5ea	-0.07419951
225	0x3e42c085	0.19018753
226	0x3c7ba364	0.01535878
227	0xbcbf8e7b	-0.02338337
228	0x3df4e381	0.119574554
229	0x3d90e54d	0.07074986
230	0x3e545171	0.20734192
231	0xbc449d24	-0.012000356
232	0x3e110078	0.14160335
233	0xb9f06568	-0.0004585192
234	0xbc099cc8	-0.008399196
235	0xbde8c828	-0.11366302
236	0xbc936de5	-0.017996738
237	0x3bfcd8f2	0.0077162916
238	0xbdf41078	-0.11917204
239	0x3d5dc808	0.054145843
240	0x3d3820ca	0.044953145
241	0xbcceb9a0	-0.025234997
242	0x3d63fc0b	0.05566029
243	0x3e0f462b	0.1399161
244	0x3da6106d	0.08108602
245	0x3df73ed3	0.1207253
246	0x3dd28eb4	0.10281125
247	0xbdf49c76	-0.11943905
248	0x3dc68ada	0.096944526
249	0xbdf2d75a	-0.11857481
250	0x3c552044	0.013008181
251	0x3bfd3c54	0.007728139
252	0x3d1b20aa	0.037872948
253	0xbcb36fb3	-0.021903848
254	0xbd9effa4	-0.07763603
255	0x3b951f72	0.0045508677

rnn.weight_hh_l0 f4 [384, 128]
0	0xbd28bab9	-0.041193698
1	0x3e1fa97a	0.15591994
2	0xbd8a9e75	-0.067685045
3	0xbe1fcfbd	-0.1560659
4	0x3ab600d7	0.0013885748
5	0xbde3f40a	-0.11130531
6	0xbd9bc218	-0.0760538
7	0x3e77d776	0.24203286
8	0xbdbd044c	-0.09229335
9	0xbc40cce9	-0.011767604
10	0x3e37c703	0.1794701
11	0x3cffb60c	0.031214736
12	0x3ca1917c	0.019722693
13	0x3dbe61d6	0.092960045
14	0x3dccb869	0.09996111
15	0xbe018f33	-0.12652282
16	0xbd31a308	-0.04336837
17	0xbd0b03e8	-0.033939272
18	0xbc6812c2	-0.014164628
19	0x3dd6ff56	0.1049792
20	0x3df751b0	0.120761275
21	0x3dd7c57f	0.10535716
22	0x3c9b0678	0.018923983
23	0xbe4c8c7a	-0.19975463
24	0xbc679d1a	-0.014136577
25	0x3e33257a	0.17494765
26	0xbd6fb1e1	-0.058519248
27	0x3e61ed16	0.22063097
28	0xbdbe382b	-0.09288057
29	0xbe0c5f94	-0.13708335
30	0xbdf2332b	-0.11826166
31	0x3e06c697	0.13161694
32	0x3df71a5e	0.12065576
33	0x3e651f2f	0.22375177
34	0x3e5a1e9a	0.21300736
35	0x3e164435	0.14674456
36	0xbdec221a	-0.11529942
37	0x3e05ac8d	0.13054104
38	0xbc9fda95	-0.019513408
39	0x3cc001ae	0.023438301
40	0xbe291374	-0.16511327
41	0x3e007808	0.12545788
42	0x3e33da91	0.17563845
43	0xbdcb1aeb	-0.099172436
44	0xbc284fa6	-0.010272896
45	0x3e13ee04	0.14446265
46	0xbda6dc28	-0.0814746
47	0x3e007d17	0.12547718
48	0xbd1e5bec	-0.038661882
49	0xbdb6702a	-0.08908112
50	0x3d4d79a6	0.05016484
51	0x3e0fc3ae	0.1403949
52	0x3e233b3b	0.15940563
53	0xbc16acb0	-0.009196445
54	0xbd9a7d39	-0.075434156
55	0x3e546e90	0.20745301
56	0xbdf55fdd	-0.11981175
57	0x3ca89b76	0.020581942
58	0x3dc2349c	0.09482691
59	0xbcb1c520	-0.021700442
60	0x3d8be81c	0.06831381
61	0x3e3b2f25	0.18279703
62	0x3d197796	0.03746756
63	0xbe1e576a	-0.15463033
64	0xbdec2ecb	-0.115323626
65	0x3d7e1674	0.06203313
66	0x3ce42426	0.027849268
67	0x3d428186	0.047486804
68	0x3dcb29f1	0.09920109
69	0xbcb56343	-0.022142058
70	0x3c54acba	0.012980634
71	0x3d851d41	0.0649972
72	0x3d15b676	0.03655096
73	0xbcd943fe	-0.026521679
74	0x3e60be14	0.21947509
75	0xbdb6b0d8	-0.08920449
76	0x3d8d2396	0.06891553
77	0x3cc4968a	0.023997564
78	0xbe17bbe3	-0.14817767
79	0x3c770c86	0.015078669
80	0x3dd41d1b	0.10357114
81	0x3dc46efc	0.09591481
82	0x3e48844e	0.1958172
83	0x3d74f2f4	0.05980201
84	0x3d991405	0.074745215
85	0x3cb4c0a4	0.022064514
86	0x3cb9e2f0	0.02269122
87	0xbd88fcfa	-0.066888765
88	0x3c83b352	0.016076718
89	0x3dddd8fd	0.10832403
90	0xbce29d55	-0.027662912
91	0x3e092d9b	0.13396303
92	0x3c1592da	0.00912925
93	0xbca92b5f	-0.020650564
94	0x3c8f7b1c	0.017514758
95	0xbdf51eff	-0.11968803
96	0xbe116a17	-0.14200626
97	0x3d16644e	0.03671675
98	0xbd6137d4	-0.054984882
99	0x3dc4883a	0.09596296
100	0x3d9dbd7c	0.07702157
101	0xbd80bb20	-0.06285691
102	0x3d976293	0.073918484
103	0xbd804ce2	-0.06264664
104	0x3e5e2a0b	0.21695726
105	0xbe09aa55	-0.13443883
106	0xbd0d5a5b	-0.034509998
107	0xbde32161	-0.11090351
108	0x3db121c1	0.08649016
109	0xbd59a8b3	-0.0531394
110	0xba24c7a2	-0.0006285851
111	0xbdf41958	-0.119188964
112	0x3d820ce9	0.06350119
113	0x3dd51dd4	0.1040608
114	0xbca08d54	-0.01959864
115	0xbd8298ed	-0.063768245
116	0xbc8b8fcc	-0.017036341
117	0x3ccab5ad	0.024744833
118	0x3e39dee3	0.18151431
119	0xbdb58e9e	-0.08865093
120	0x3d2fd6c0	0.04292941
121	0x3cd0cc16	0.02548794
122	0xbca5dec2	-0.02024782
123	0x3e2c7c72	0.16844347
124	0x3cc1fe07	0.0236807
125	0xbe359d47	-0.17735778
126	0x3c92477e	0.017856356
127	0xbd821980	-0.0635252
128	0x3c2ae19c	0.010429766
129	0x3c2bbc59	0.010481917
130	0x3d407f25	0.046996254
131	0x3bc83fd8	0.0061111264
132	0xbda56ed1	-0.08077777
133	0xbbc385d8	-0.005966883
134	0x3c9e1fe6	0.01930232
135	0x3b0e8aaa	0.002175013
136	0x3d84c13a	0.064821675
137	0x3d898fd6	0.06716888
138	0x3e0e13dd	0.13874765
139	0x3d19140b	0.03737263
140	0x3d825256	0.063633606
141	0x3d5fe2a6	0.05465951
142	0xbe137721	-0.14400913
143	0x3e14e973	0.14542179
144	0x3d817bc4	0.063224345
145	0xbc8b2321	-0.016984524
146	0x3da9ac62	0.082848325
147	0xbd7e19d4	-0.06203635
148	0xbc49cbc6	-0.01231665
149	0x3d39687d	0.045265663
150	0xbb06182e	-0.002046119
151	0x3d73cf8c	0.059524104
152	0x3c9cb55e	0.019129451
153	0xbd2aff67	-0.041747477
154	0x3dad9ee8	0.084775746
155	0xbdcc8034	-0.0998539
156	0x3c7da312	0.0154807735
157	0xbd879e37	-0.06621974
158	0xbdab9a4e	-0.08379041
159	0xbdd5282a	-0.10408051
160	0xbe00032e	-0.12501213
161	0x3d90d08c	0.07071027
162	0x3e052faf	0.13006471
163	0x3c718dd0	0.014743283
164	0xbb1e25a2	-0.0024131318
165	0x3dddef61	0.108366735
166	0x3d177b9e	0.036983125
167	0x3da10296	0.07861821
168	0xbe221dba	-0.15831652
169	0xbcaacb95	-0.020849029
170	0x3de88988	0.11354357
171	0x3bad5f92	0.005290934
172	0x3cb9242e	0.02260026
173	0x3df4a697	0.11945837
174	0xbd831352	-0.064001694
175	0x3d050f87	0.03248551
176	0xbb8d51ed	-0.004312745
177	0x3e3f7084	0.18695265
178	0xbd8f5d5c	-0.07000229
179	0x3e023980	0.12717247
180	0x3cdb3b13	0.026761567
181	0x3e4d5102	0.20050433
182	0x3dc9d09d	0.09854243
183	0x3d935f0f	0.07195865
184	0x3d656d06	0.056012176
185	0xbe118711	-0.1421168
186	0x3d8a8136	0.06762926
187	0x3b494d98	0.0030716415
188	0x3cc5e9b6	0.024159294
189	0x3ded8af7	0.11598771
190	0x3b1ca50a	0.0023902082
191	0xbd0a9736	-0.033835612
192	0x3df844ae	0.121224746
193	0xbe2c1a9c	-0.16807026
194	0xbd884489	-0.06653697
195	0xbdc1748a	-0.09446056
196	0xbd9b903f	-0.07595872
197	0xbdc81644	-0.09769872
198	0xbdaf6ab6	-0.08565275
199	0xbe546a0e	-0.20743582
200	0x3ceee7ba	0.02916323
201	0x3d9cecac	0.07662329
202	0xbe16529c	-0.1467995
203	0xbe286366	-0.16444167
204	0xbde09573	-0.10966005
205	0xbd4f970d	-0.050681163
206	0x3d57fb1a	0.052729703
207	0x3bb9926d	0.0056632073
208	0xbd46b53b	-0.04851268
209	0x3d296d47	0.04136398
210	0x3d1b0fc1	0.03785682
211	0x3d9f2cec	0.0777224
212	0xbdbc00c3	-0.09179833
213	0xbdd80e4e	-0.105496034
214	0xbe3913d2	-0.18073967
215	0x3d145e68	0.036222845
216	0xbcc6ddf7	-0.024275763
217	0xbc54d34f	-0.012989833
218	0xbdaefb7b	-0.0854406
219	0x3cb755eb	0.022379836
220	0xbba137a0	-0.004919961
221	0x3d8d4e36	0.06899683
222	0x3e0d92a7	0.13825475
223	0x3d1d9113	0.03846843
224	0x3b5dd199	0.0033846854
225	0x3c732e54	0.014842588
226	0x3da250d7	0.07925575
227	0x3ddd513c	0.1080651
228	0xbc15418b	-0.009109865
229	0xbd8f12e9	-0.06986029
230	0x3cc0b1bf	0.023522256
231	0xbcc40a37	-0.023930652
232	0x3e12d174	0.14337713
233	0xbd3bc73e	-0.04584431
234	0xbc8afd13	-0.016966378
235	0xbd5c09dd	-0.053720344
236	0xbd66a655	-0.05631097
237	0x3df945df	0.1217153
238	0xbce86a71	-0.028371068
239	0x3d764e5c	0.060133323
240	0xbdaa7f3f	-0.083250515
241	0x3cd5232c	0.026017748
242	0x3ce6cbb8	0.028173313
243	0xbd04311a	-0.03227339
244	0xbae78406	-0.0017663247
245	0xbdde18b3	-0.10844555
246	0xbde805a2	-0.113291994
247	0xbcee2dac	-0.029074512
248	0xbdc29154	-0.095003754
249	0xbd91307b	-0.07089325
250	0x3ca0ea8c	0.01964309
251	0x3d936541	0.07197047
252	0xbe197bfb	-0.14988701
253	0x3d7548e9	0.059883986
254	0xbdb03112	-0.086031094
255	0x3da63b78	0.081168115

rnn.bias_ih_l0 f4 [384]
0	0x3dda59c6	0.10661654
1	0x3d0cf522	0.034413464
2	0x3e17e345	0.1483279
3	0x3db5b19f	0.08871769
4	0xbbf9581e	-0.0076093813
5	0x3d6aedc5	0.05735566
6	0x3e064916	0.13113818
7	0x3da83d92	0.082148686
8	0x3d8873ad	0.066626884
9	0x3ca859b9	0.020550596
10	0x3e1a287b	0.15054505
11	0xbc30cdbe	-0.01079124
12	0x3d29732e	0.04136961
13	0x3d5b2bd7	0.053508606
14	0x3dbe5132	0.092928305
15	0x3d7fd319	0.062457178
16	0x3df55e68	0.11980897
17	0x3d793a47	0.060846593
18	0x3e01e794	0.12685996
19	0x3d027b22	0.03185571
20	0x3c8f72cd	0.017510796
21	0x3d1febcb	0.03904323
22	0x3db9fe3e	0.09081696
23	0x3d1bd5bc	0.03804563
24	0xbc9a30fc	-0.018822186
25	0x3d07f785	0.033195037
26	0x3e1bfc37	0.15232931
27	0x3e12055e	0.1425986
28	0x3d9e7ce8	0.07738668
29	0x3e0b548b	0.1360647
30	0x3d81eae8	0.06343633
31	0x3db38877	0.08766263
32	0x3cedf099	0.02904539
33	0x3e08320d	0.13300343
34	0x3c88ac50	0.016683728
35	0x3d963fae	0.07336365
36	0x3d6ac6bb	0.05731843
37	0x3dce9e52	0.10088791
38	0x3d95fc03	0.07323458
39	0x3db0e59b	0.08637544
40	0x3df3dff4	0.1190795
41	0x3cd46a33	0.025929546
42	0x3dd575b6	0.10422842
43	0x3db9537c	0.090491265
44	0x3dd344ce	0.10315858
45	0x3e0b2c8c	0.13591212
46	0x3da97045	0.08273367
47	0x3de26751	0.11054862
48	0x3dd9509f	0.106110804
49	0x3daefd8e	0.085444555
50	0x3e0c37d7	0.13693176
51	0x3e0eebae	0.13957092
52	0x3e0f53da	0.1399683
53	0x3bcf74b0	0.006331049
54	0xbb998c83	-0.0046859398
55	0x3e3507a1	0.17678691
56	0x3e529d48	0.2056781
57	0x3e2f1580	0.17098045
58	0x3d9a12ec	0.0752314
59	0x3d77c107	0.06048682
60	0x3ccb6b79	0.02483152
61	0x3e05f386	0.13081178
62	0x3d2e62ca	0.04257468
63	0x3db062d6	0.086126015
64	0x3e212aeb	0.15739028
65	0x3cf023bb	0.029313913
66	0x3e09e956	0.13467917
67	0x3c76f8c0	0.015073955
68	0x3ce2dd33	0.027693367
69	0x3d823598	0.063578784
70	0x3c954266	0.018220138
71	0x3d29fb10	0.041499197
72	0x3dc2393a	0.09483571
73	0x3d9a61fd	0.07538221
74	0x3dca8498	0.098885715
75	0x3da0d6ce	0.07853471
76	0x3db30a4f	0.087422006
77	0x3e165a8b	0.14682977
78	0x3dd9c1b6	0.106326506
79	0x3d1a7464	0.037708655
80	0x3d329480	0.043598652
81	0x3da888c5	0.08229212
82	0x3e05ed36	0.1307877
83	0x3e0906ca	0.13381496
84	0x3cbe0951	0.023197802
85	0x3d6ac50f	0.057316836
86	0x3de839d7	0.11339157
87	0x3e063fa2	0.13110211
88	0x3d199557	0.037495937
89	0x3c65a8a0	0.014017254
90	0x3d5fac11	0.054607455
91	0xbd0d4348	-0.034487993
92	0x3a535a5c	0.0008062476
93	0x3df437d5	0.119247116
94	0x3e13ed78	0.14446056
95	0x3de1a0e1	0.11017013
96	0x3d6dfdb1	0.058103267
97	0x3db9894d	0.09059391
98	0x3d8a1f6e	0.06744276
99	0x3e03a480	0.1285572
100	0x3df869cd	0.12129555
101	0x3d4518e6	0.048119448
102	0x3e1be6f8	0.15224826
103	0x3c42f602	0.011899473
104	0x3cdae634	0.026721098
105	0x3d8ef2f9	0.06979937
106	0xbcc6447b	-0.024202576
107	0x3df426d9	0.11921472
108	0x3d996b60	0.07491183
109	0x3db879ae	0.090075836
110	0x3d755c7c	0.059902653
111	0x3d5e7364	0.054309264
112	0x3a1b9510	0.0005934993
113	0xbaeb0298	-0.001792985
114	0x3e0422fa	0.12903967
115	0xbcac2acd	-0.021016503
116	0x3d540e16	0.051771246
117	0x3d636f35	0.055525977
118	0x3dff65ff	0.12470626
119	0x3daf46ec	0.08558449
120	0xbc9aeb4b	-0.018911025
121	0xbbb9c3c2	-0.005669088
122	0x3cf397db	0.029735496
123	0x3deae98f	0.11470329
124	0xbb37fcab	-0.0028074186
125	0x3d4ba0c9	0.049713884
126	0x3d8a4f20	0.06753373
127	0x3df80185	0.12109665
128	0xbe3c933e	-0.18415543
129	0xbe4384ec	-0.19093674
130	0xbdf46dbd	-0.119349934
131	0xbd5b4428	-0.053531796
132	0xbd2931f2	-0.041307397
133	0xbdffc374	-0.124884516
134	0xbe50ba21	-0.20383503
135	0xbd858d5d	-0.065211035
136	0xbdbadc14	-0.09124008
137	0xbdf3072a	-0.11866601
138	0xbd9bf3f6	-0.07614891
139	0xbde9e8c8	-0.114213526
140	0xbe22a602	-0.1588364
141	0xbe273fad	-0.16332884
142	0xbdd9cdfa	-0.1063499
143	0xbe353a05	-0.17697914
144	0xbe3948c8	-0.1809417
145	0xbe1d07bd	-0.15334983
146	0xbe3e74f1	-0.18599297
147	0xbe3017d6	-0.17196593
148	0xbe0c804a	-0.13720813
149	0xbd9700fb	-0.07373234
150	0xbe1d8728	-0.1538359
151	0xbd0f997a	-0.035058476
152	0xbd108083	-0.03527881
153	0xbd679c4c	-0.05654554
154	0xbe57b489	-0.21064962
155	0xbd73d067	-0.05952492
156	0xbd985ff3	-0.07440176
157	0xbbc13c9a	-0.005897117
158	0xbe26d307	-0.16291438
159	0xbde23059	-0.11044378
160	0xbdc9c12f	-0.098513
161	0xbdb42623	-0.087963365
162	0xbe1fbe37	-0.15599905
163	0xbde31e1b	-0.110897265
164	0xbd6f0c32	-0.05836124
165	0xbe0faf84	-0.14031798
166	0xbe3fdffc	-0.18737787
167	0xbe38f57f	-0.180624
168	0xbe0e6ec1	-0.13909437
169	0xbde77f45	-0.113035716
170	0xbe15ce01	-0.14629366
171	0xbe1a2576	-0.15053353
172	0xbe6c99d0	-0.2310555
173	0x3c86af5a	0.016441036
174	0xbe70d662	-0.2351928
175	0xbe3e996e	-0.18613216
176	0xbdee7cee	-0.11644922
177	0xbdfccd9d	-0.12343905
178	0xbe567d4d	-0.20946236
179	0x3c94e798	0.018176839
180	0xbe477208	-0.19477093
181	0xbe6d754e	-0.2318928
182	0xbe1e28dd	-0.15445276
183	0xbe4c4309	-0.19947447
184	0xbe129011	-0.1431277
185	0xbdf509d2	-0.11964764
186	0xbda6f81c	-0.08152792
187	0xbd8d939f	-0.06912922
188	0xbe6b754f	-0.22993968
189	0xbdee3996	-0.116320774
190	0xbcaf7143	-0.021416312
191	0xbc90f780	-0.017696142
192	0xbe3ea4be	-0.18617532
193	0xbdcc96a9	-0.09989674
194	0xbdad0d08	-0.08449751
195	0xbe542314	-0.20716506
196	0xbe040fe3	-0.12896685
197	0xbe3917d2	-0.18075493
198	0xbda993be	-0.08280133
199	0xbde66ac9	-0.112508364
200	0xbe0a6395	-0.1351455
201	0xbe27f66f	-0.164026
202	0xbdb1da0a	-0.08684166
203	0xbd37e65a	-0.044897415
204	0xbcfd1620	-0.03089434
205	0xbe2911da	-0.16510716
206	0xbe3c0fe8	-0.18365443
207	0xbe317209	-0.17328657
208	0xbdc99595	-0.09842984
209	0xbe1c0cbb	-0.15239231
210	0xbdcd181d	-0.10014365
211	0xbd3a4789	-0.045478377
212	0xbd85ed78	-0.06539434
213	0xbd8c1df0	-0.068416476
214	0xbd915b97	-0.070975475
215	0xbd08f0b3	-0.033432674
216	0xbe0806a0	-0.13283777
217	0xbde92933	-0.11384811
218	0xbe1c978a	-0.15292183
219	0xbbc82f31	-0.0061091413
220	0xbe08409c	-0.13305897
221	0xbd445daf	-0.047940906
222	0xbc91fac0	-0.017819762
223	0xbdf8cc33	-0.12148323
224	0xbe0148ae	-0.12625381
225	0xbdc43f9a	-0.095824435
226	0xbd3650f8	-0.04451081
227	0xbdf6c960	-0.12050128
228	0xbe034b25	-0.12821634
229	0xbe12cc84	-0.14335829
230	0xbe1a0b07	-0.15043269
231	0xbd9af95e	-0.07567094
232	0xbdc8f8ec	-0.09813103
233	0xbde01861	-0.1094215
234	0xbdb6a49e	-0.08918117
235	0xbe4ce64f	-0.20009731
236	0xbcdf4989	-0.027256744
237	0xbd8c9c37	-0.06865733
238	0xbdfdbf3d	-0.123899914
239	0xbe1d2e75	-0.15349753
240	0xbe3be163	-0.18347697
241	0xbdb36848	-0.087601244
242	0xbd6ce86a	-0.057838835
243	0xbd355e08	-0.04427913
244	0xbdab5668	-0.0836609
245	0xbe14fb85	-0.14549072
246	0xbd0cbd1c	-0.034360036
247	0xbdd04124	-0.101686746
248	0xbe54f03a	-0.20794764
249	0xbd92b158	-0.07162732
250	0xbdabb1aa	-0.08383496
251	0xbe3e0a3d	-0.18558593
252	0xbe6a53a0	-0.22883463
253	0xbdd57a38	-0.10423702
254	0xbe0aa0f1	-0.13537957
255	0xbce9481f	-0.028476773

rnn.bias_hh_l0 f4 [384]
0	0x3d945769	0.07243235
1	0x3e15a70d	0.14614506
2	0x3d9c5e41	0.07635165
3	0x3d794b77	0.060862985
4	0x3ce1f08b	0.02758052
5	0x3d85ce5b	0.065335
6	0x3cf00170	0.02929756
7	0xbcff538e	-0.031167772
8	0x3cd02d00	0.025412083
9	0x3dfdfeb4	0.124020964
10	0x3d28409a	0.041077234
11	0x3d9da8a4	0.07698181
12	0x3e0805fd	0.13283534
13	0x3e2d774a	0.16940036
14	0x3dc9299f	0.09822392
15	0x3dc59ee2	0.09649445
16	0x3ccbbfc3	0.024871713
17	0x3e0790f3	0.13238887
18	0x3cfe4adf	0.03104156
19	0x3df13c4c	0.11779079
20	0x3c943177	0.018089993
21	0x3e3289a1	0.17435314
22	0xb988c2c4	-0.00026085053
23	0x3d69f736	0.057120524
24	0xbcf43abd	-0.029813165
25	0x3d898170	0.06714141
26	0x3cbf2810	0.023334533
27	0x3e15414e	0.14575693
28	0x3dc79c9f	0.0974667
29	0xbc38e471	-0.011284933
30	0x3e3220f7	0.17395388
31	0x3d97b9f3	0.07408514
32	0x3db486bb	0.0881476
33	0x3da33bf4	0.079704195
34	0xbb394821	-0.0028271752
35	0x3cf06aa6	0.029347729
36	0x3dea65dc	0.114452094
37	0x3c8d5dea	0.017256696
38	0x3e1636c2	0.14669326
39	0x3e0447bd	0.12917991
40	0x3e09a81e	0.13443038
41	0x3b4aff5a	0.0030974955
42	0xbc149cb6	-0.009070566
43	0x3cb27320	0.021783412
44	0xbc885c16	-0.016645472
45	0x3db833e9	0.08994276
46	0x3d0fb20a	0.0350819
47	0xbd0e933c	-0.034808382
48	0xbb4b8d7e	-0.0031059678
49	0xbc216813	-0.009851473
50	0x3dc0a2f0	0.09406078
51	0x3c010b98	0.007876299
52	0x3a3a1489	0.0007098397
53	0x3d8dd946	0.06926207
54	0x3dfc4701	0.123182304
55	0x3e2ca55b	0.16859953
56	0x3dea1935	0.11430589
57	0x3de150d7	0.11001747
58	0x3df18f73	0.11794939
59	0x3e161315	0.14655717
60	0x3d8a9f2e	0.06768642
61	0x3d5af565	0.053456683
62	0x3d169679	0.036764596
63	0x3d570c0c	0.052501723
64	0x3d170c9e	0.036877267
65	0x3dfd43db	0.12366458
66	0x3e25644c	0.16151541
67	0x3e331464	0.17488247
68	0x3d440670	0.0478577
69	0x3e0a860f	0.13527702
70	0x3df89783	0.121382736
71	0x3d89f765	0.0673664
72	0xbb281a06	-0.0025650277
73	0xbc2e9924	-0.010656629
74	0x3e13903c	0.1441049
75	0x3c855171	0.016274186
76	0x3da1c362	0.078985944
77	0x3c3eb602	0.011640074
78	0x3dee1155	0.116243996
79	0x3c864a30	0.016392797
80	0x3cbd2a0b	0.023091337
81	0x3dac6c2b	0.08419069
82	0xbcab60ae	-0.020920124
83	0x3de938b7	0.113877706
84	0x3e231ca1	0.1592889
85	0x3d968198	0.07348937
86	0x3df880c2	0.121339336
87	0x3dfbcc89	0.12294871
88	0x3e411fd2	0.18859795
89	0x3de3d320	0.11124253
90	0x3dfa8087	0.12231546
91	0x3dee7eae	0.11645256
92	0x3de97521	0.11399294
93	0x3dd69c39	0.10479016
94	0xbafa6b2e	-0.0019105428
95	0x3d92d960	0.07170367
96	0x3dc1f0aa	0.09469731
97	0x3d869b90	0.0657264
98	0x3e076c49	0.13224901
99	0x3dbc9136	0.09207384
100	0x3c8dc3e8	0.01730533
101	0x3e418b03	0.18900685
102	0x3ba19e54	0.0049322043
103	0x3db15a8b	0.08659848
104	0x3d22c4eb	0.039738577
105	0x3df0734e	0.117407426
106	0xbc3b4be4	-0.011431668
107	0x3bca10e0	0.0061665624
108	0x3e2bcbb7	0.1677693
109	0xbc71cfd0	-0.014759019
110	0x3e23f301	0.16010667
111	0x3bf47c98	0.007461142
112	0x3df1276b	0.117750965
113	0x3cc74182	0.024323229
114	0x3dc615e5	0.09672145
115	0xbc78159d	-0.015141872
116	0x3d96d4de	0.0736482
117	0x3d72fa96	0.05932101
118	0x3df41b47	0.11919265
119	0x3cec7368	0.028863624
120	0x3dce5765	0.10075263
121	0x3d147c5f	0.036251422
122	0x3e424230	0.18970561
123	0x3e001930	0.12509608
124	0xbca0e27b	-0.019639244
125	0x3d0529d7	0.032510605
126	0x3d2d3955	0.042291004
127	0x3d8ea965	0.06965903
128	0xbe469a39	-0.19394769
129	0xbe068832	-0.13137892
130	0xbb8a5335	-0.004221345
131	0xbe16f829	-0.14743103
132	0xbdc48944	-0.09596494
133	0xbe13331b	-0.14374964
134	0xbe0a2857	-0.13491951
135	0xbde6a02b	-0.11261018
136	0xbc923076	-0.017845374
137	0xbe1ce38c	-0.15321177
138	0xbd83fe60	-0.064450026
139	0xbd0b0a4d	-0.03394537
140	0xbe5da48a	-0.21644798
141	0xbe04715c	-0.12933868
142	0xbb7a0697	-0.00381509
143	0xbdb63018	-0.08895892
144	0xbe42ecd8	-0.19035661
145	0xbdcc13ba	-0.099647
146	0xbe0a43b8	-0.13502395
147	0xbdf28ece	-0.11843644
148	0x3b25382a	0.0025210478
149	0xbd842be8	-0.06453687
150	0xbdb06361	-0.08612705
151	0xbd754351	-0.05987865
152	0xbdd34ce9	-0.10317404
153	0xbe0860c2	-0.1331816
154	0xbe0c38e4	-0.13693577
155	0xbe56b544	-0.20967585
156	0xbcd3cbcb	-0.025854012
157	0xbd88dbe8	-0.06682569
158	0xbe1c9f18	-0.15295064
159	0xbe2b1513	-0.16707258
160	0xbe23c54a	-0.15993229
161	0xbd6a68ef	-0.05722898
162	0xbd80f5ea	-0.062969044
163	0xbe159404	-0.14607245
164	0xbe469ac8	-0.19394982
165	0xbd9cf326	-0.076635644
166	0xbe340f6a	-0.17584005
167	0xbda28874	-0.079361826
168	0xbd76e818	-0.060279936
169	0xbe3d7137	-0.1850022
170	0xbe771c87	-0.24131976
171	0xbe15ed9a	-0.14641419
172	0xbe202cdc	-0.15642112
173	0xbde8de1e	-0.113704905
174	0xbdf97998	-0.12181395
175	0xbe574a05	-0.2102433
176	0xbe111db9	-0.14171495
177	0xbe217570	-0.15767455
178	0xbd76e18d	-0.060273696
179	0xbc8fba54	-0.017544903
180	0xbe2748bd	-0.16336341
181	0xbd9c2f3d	-0.076261975
182	0xbe32a071	-0.17444016
183	0xbe26fe9b	-0.16308062
184	0xbe3da298	-0.18519056
185	0xbe7e8a8e	-0.24857542
186	0xbe1d203b	-0.15344326
187	0xbdaf8c85	-0.08571724
188	0xbe103c81	-0.1408558
189	0xbe01883b	-0.12649624
190	0xbc27e2ab	-0.010246913
191	0xbe045ec6	-0.12926778
192	0xbde28559	-0.1106059
193	0x3c3fa2f9	0.011696571
194	0xbe53a5f3	-0.20668773
195	0xbe577e31	-0.21044232
196	0xbe83de4f	-0.25755545
197	0xbd8c6de5	-0.06856898
198	0xbe22ae89	-0.15886892
199	0xbdf72a98	-0.12068671
200	0xbe51b608	-0.20479596
201	0xbe5e59c9	-0.21713938
202	0xbe1ce522	-0.15321782
203	0x3da9bf27	0.082884125
204	0xbd36913c	-0.0445721
205	0xbe2f022b	-0.17090671
206	0xbe015dac	-0.12633389
207	0xbe3fac00	-0.18717957
208	0xbd576dbc	-0.052594885
209	0xbe61380d	-0.21994038
210	0xbe2d83fb	-0.16944878
211	0xbe0f7aeb	-0.14011733
212	0xbcff6a85	-0.031178722
213	0xbe4721b7	-0.19446455
214	0xbd80ff7e	-0.06298731
215	0xbdbdb44b	-0.09262904
216	0xbe0b5b23	-0.13608985
217	0xbd41b8d3	-0.047295403
218	0xbdd39c24	-0.10332516
219	0xbe1973ab	-0.1498553
220	0xbd2ffeb2	-0.042967506
221	0xbe43622b	-0.19080417
222	0xbcae68d1	-0.021290215
223	0xbe5658ac	-0.20932263
224	0xbdcb79b0	-0.099353194
225	0xbe2070c9	-0.15668024
226	0xbdf2e2cc	-0.11859664
227	0xbe237365	-0.15961988
228	0xbd957cb3	-0.07299175
229	0xbe221106	-0.15826806
230	0xbe2b3cca	-0.16722408
231	0xbe15cc7b	-0.14628784
232	0xbd8d8a27	-0.06911116
233	0xbe06ed73	-0.13176517
234	0xbe57dc29	-0.21080078
235	0xbdbaac8d	-0.09114943
236	0xbdd73e4e	-0.105099306
237	0xbe0a70ad	-0.13519545
238	0xbe0d0616	-0.13771853
239	0xbe6707dd	-0.22561593
240	0xbdb86720	-0.090040445
241	0xbe05c908	-0.13064969
242	0xbd65865b	-0.056036334
243	0xbde640f7	-0.1124286
244	0xbda473c5	-0.08029894
245	0xbdb5a61a	-0.08869572
246	0xbe363f56	-0.17797598
247	0xbe2a4a60	-0.16629934
248	0xbe1df0d9	-0.15423907
249	0xbd7eb6a8	-0.062185913
250	0xbe29f714	-0.16598159
251	0xbdde528a	-0.10855587
252	0xbe0d0f5c	-0.1377539
253	0xbe48257c	-0.19545549
254	0x3b31a217	0.002710467
255	0xbdb55307	-0.08853727

fc.weight f4 [38, 128]
0	0xbe7024d4	-0.23451549
1	0x3e3e4b6d	0.1858346
2	0xbe43b44f	-0.19111751
3	0xbe66cbaf	-0.22538637
4	0x3e21c129	0.15796341
5	0x3e117ee7	0.14208566
6	0x3de02ca2	0.10946013
7	0xbdc6d1dd	-0.09707997
8	0xbdb18eb8	-0.086697996
9	0xbe064250	-0.13111234
10	0x3dbf0445	0.09326986
11	0x3c8eaa2d	0.01741513
12	0xbe2f9292	-0.17145756
13	0x3e2a2e82	0.16619304
14	0x3d34838d	0.04407077
15	0xbdc38ac8	-0.09547955
16	0xbe46ab7a	-0.1940135
17	0xbe307e0d	-0.17235585
18	0xbd965d2f	-0.07341992
19	0x3e0a7de9	0.13524593
20	0x3d9f5305	0.077795066
21	0xbdb463d7	-0.088081054
22	0xbe6bbc56	-0.23021063
23	0xbe397964	-0.18112713
24	0x3e1af1e0	0.1513133
25	0xbe1ee572	-0.15517214
26	0x3d462a2c	0.048380062
27	0x3d78f779	0.060782883
28	0xbe0c8431	-0.13722302
29	0x3e12f459	0.14351024
30	0xbde95d23	-0.113947175
31	0xbdfc64b7	-0.12323897
32	0xbdb7a3e6	-0.08966808
33	0x3d3007d3	0.04297621
34	0x3cbb41ca	0.02285852
35	0x3cef3b2d	0.029203022
36	0x3da8be89	0.08239467
37	0xbdd3dbbe	-0.10344647
38	0xbe1415e9	-0.14461483
39	0xbd5afdb8	-0.05346462
40	0x3e0bfdd6	0.1367105
41	0xbc7105bf	-0.014710843
42	0x3e37c8f2	0.17947748
43	0xbdd9a2d1	-0.10626758
44	0xbdb9d188	-0.09073168
45	0x3dd70227	0.104984574
46	0x3c3a0b07	0.011355168
47	0xbe5856be	-0.2112684
48	0x3d936d72	0.071986094
49	0x3e25f3de	0.16206309
50	0x3e5e2cbf	0.21696757
51	0x3e097037	0.13421713
52	0x3d7c195c	0.061547622
53	0xbe04dcec	-0.129749
54	0xbe5a51d7	-0.21320282
55	0xbd4de49a	-0.05026684
56	0xbde34986	-0.11098008
57	0xbe419917	-0.18906055
58	0xbe2dceea	-0.16973463
59	0x3d849eca	0.06475599
60	0xbe39fc09	-0.1816255
61	0xbd0aa787	-0.033851173
62	0x3e441422	0.19148305
63	0xbb27a024	-0.002557763
64	0xbcb90978	-0.022587523
65	0xbdbd3b45	-0.092398204
66	0xbd9e299a	-0.077227786
67	0xbc6ccad7	-0.014452658
68	0xbe0f6a96	-0.14005503
69	0x3e4b2eb4	0.19842035
70	0xbdf354bd	-0.11881397
71	0xbe1aa3b1	-0.15101506
72	0xbdea93fd	-0.11454008
73	0x3d0ac639	0.033880446
74	0x3dfb4b0a	0.12270172
75	0xbde284d9	-0.11060495
76	0xbe23734c	-0.15961951
77	0x3dd6aba5	0.10481957
78	0x3dbf6ab9	0.093465276
79	0x3d7cf882	0.061760433
80	0xbd97f2e6	-0.07419376
81	0xbe46377d	-0.19357105
82	0xbda999df	-0.08281302
83	0xbd6fdae0	-0.058558345
84	0x3d5fbb66	0.054622076
85	0x3d54205a	0.051788665
86	0x3dc218f7	0.09477418
87	0x3b2150d5	0.002461483
88	0xbe337888	-0.17526448
89	0xbe1a856b	-0.15089957
90	0x3d9af168	0.07565576
91	0xbe167258	-0.14692056
92	0xbdbae720	-0.09126115
93	0x3dca86a6	0.098889634
94	0x3e13dd31	0.14439847
95	0x3d03a7ee	0.032142572
96	0xbe008f75	-0.12554725
97	0xbd037766	-0.03209629
98	0xbdeb3d58	-0.1148631
99	0xbe735503	-0.23762898
100	0x3e11dc6e	0.14244244
101	0x3e6ba561	0.23012306
102	0x3e211ab1	0.15732838
103	0xbe4cb2a7	-0.19990025
104	0x3e1063c5	0.14100559
105	0x3db6f4b0	0.08933389
106	0x3d67d4e9	0.05659953
107	0x3c402879	0.011728399
108	0x3da795ec	0.08182892
109	0xbe2427b7	-0.16030775
110	0xbe446e46	-0.19182691
111	0xbe5ae0cf	-0.2137482
112	0xbe018741	-0.12649252
113	0xbc3fb9f2	-0.011702048
114	0x3dc2c242	0.09509708
115	0xbd935e04	-0.071956664
116	0xbe47cb92	-0.1951125
117	0xbbf4a19b	-0.007465554
118	0x3e39f275	0.18158896
119	0xbdad6bc9	-0.08467824
120	0x3d6c0efc	0.057631478
121	0x3e0661f0	0.13123298
122	0xbe22be96	-0.15893015
123	0x3e3de8c8	0.1854583
124	0xbd16e046	-0.036834978
125	0x3dc5c21a	0.096561626
126	0xbd51a069	-0.05117837
127	0xbe36a52b	-0.17836444
128	0xbe63f3bf	-0.2226095
129	0x3e457191	0.19281603
130	0xbdbae593	-0.09125819
131	0xbe362dc7	-0.177909
132	0xbe3016c8	-0.1719619
133	0xbd77364c	-0.060354516
134	0xbe579dc7	-0.21056281
135	0x3daa8621	0.08326364
136	0xbdf53b23	-0.1197417
137	0x3dee22fb	0.11627766
138	0x3e231d4d	0.15929146
139	0x3c922c7b	0.017843476
140	0x3dfd86c4	0.1237922
141	0x3d46ce30	0.04853648
142	0xbe08c957	-0.13358055
143	0xbddf4732	-0.10902251
144	0xbe264a1b	-0.16239206
145	0xbd17212e	-0.036896877
146	0x3e4b6e3b	0.19866268
147	0x3e4eeb1b	0.20206873
148	0x3e1915c5	0.1494971
149	0x3e01a03a	0.12658778
150	0xbd39d4e0	-0.04536903
151	0x3d41be9d	0.047300924
152	0xbe5863f2	-0.21131876
153	0x3e4d9f0c	0.20080203
154	0x3e3ba3ae	0.18324158
155	0x3e100339	0.1406373
156	0xbe21fbe4	-0.15818745
157	0xbde49dd3	-0.11162915
158	0xbe4bc412	-0.19899014
159	0x3e2a8382	0.16651729
160	0xbe4cd02b	-0.20001285
161	0x3d422f76	0.047408544
162	0x3e20def2	0.15710047
163	0x3d24dd61	0.040250186
164	0x3e19e371	0.15028168
165	0xbc608aa2	-0.013704928
166	0x3dd67f26	0.104734704
167	0x3e138d30	0.14409328
168	0x3cbe92fb	0.023263445
169	0xbe211d81	-0.15733911
170	0x3d4f3291	0.050585333
171	0x3d86ce08	0.06582266
172	0xbe16015a	-0.14648953
173	0x3de48b2e	0.11159359
174	0xbdecf7b4	-0.11570683
175	0xbe236c4e	-0.15959284
176	0xbe17f926	-0.14841136
177	0x3e40fcdf	0.18846463
178	0xbe03e64c	-0.1288082
179	0xbc9174bf	-0.017755864
180	0x3e232887	0.15933429
181	0x3e5265a0	0.2054658
182	0x3dc79332	0.09744872
183	0xbe42c33e	-0.19019791
184	0xbe398be3	-0.18119769
185	0xbe73c172	-0.23804262
186	0xbe20a984	-0.15689665
187	0xbe06c1ec	-0.13159913
188	0x3e0e4960	0.13895178
189	0x3dd138dc	0.10215923
190	0xbcd5ab56	-0.026082676
191	0xbde3d577	-0.111246996
192	0x3e108cf8	0.14116275
193	0x3c716781	0.01473415
194	0xbd45747f	-0.048206802
195	0x3e19de69	0.15026249
196	0xbe3df9fe	-0.18552396
197	0xbe3b0fc1	-0.18267728
198	0x3dec621e	0.11542152
199	0xbd999e62	-0.07500912
200	0xbe15f15d	-0.14642854
201	0xbe02439b	-0.12721102
202	0x3e5af5fd	0.213829
203	0xbde6a22d	-0.11261401
204	0x3e407bf5	0.18797286
205	0xbdde0621	-0.10841013
206	0xbd220fdb	-0.039565902
207	0xbdf44cad	-0.11928687
208	0xbe001df4	-0.12511426
209	0xbd725c83	-0.059170257
210	0x3d58c5e0	0.052923083
211	0x3d88ff1a	0.06689282
212	0xbc7780a9	-0.015106359
213	0x3e0e6ec4	0.13909441
214	0xbe37ab0b	-0.17936341
215	0x3e0ffb46	0.14060697
216	0xbe60751e	-0.21919677
217	0x3e18f04e	0.14935419
218	0x3e5173ee	0.2045438
219	0x3de38ac4	0.11110452
220	0x3de068f3	0.109575175
221	0x3e4aae9a	0.19793168
222	0x3de88bc4	0.11354783
223	0x3e5e56bb	0.21712773
224	0xbe1f2864	-0.15542752
225	0x3e0abcd6	0.13548598
226	0xbe699fd6	-0.22814879
227	0x3da1c203	0.07898333
228	0x3e0bd293	0.13654546
229	0xbe3f8f6d	-0.18707056
230	0x3daed619	0.0853693
231	0xbdd3e67e	-0.10346697
232	0x3dc3c289	0.09558589
233	0x3e593a90	0.21213746
234	0x3e6c8212	0.23096493
235	0x3e5b3fae	0.2141101
236	0xbe5e77b3	-0.21725349
237	0x3d5a3a65	0.053278346
238	0xbe2de6e1	-0.16982605
239	0xbde14731	-0.10999907
240	0xbdc202a0	-0.09473157
241	0xbcdbb24b	-0.026818415
242	0x3d6c0530	0.057622135
243	0xbd87584e	-0.0660864
244	0xbe18088c	-0.1484701
245	0xbc6af8e6	-0.014341569
246	0x3df77906	0.1208363
247	0xbdc8d7f6	-0.09806816
248	0x3e2884ed	0.16456957
249	0xbe224cfa	-0.15849677
250	0xbe3ffef9	-0.18749608
251	0xbcc998b5	-0.02460895
252	0xbdf9b63f	-0.12192964
253	0xbe3580b1	-0.17724873
254	0xbddadb6a	-0.10686381
255	0x3e8ef01a	0.27917558

fc.bias f4 [38]
0	0xbc8791b4	-0.016548969
1	0x3dd68581	0.104746826
2	0x3cc4411d	0.02395683
3	0xbdf04180	-0.11731243
4	0x3bc882be	0.0061191013
5	0xbd9f51c0	-0.077792645
6	0x3cadc9a9	0.021214323
7	0xbddca67c	-0.10773942
8	0xbe08b78e	-0.1335127
9	0xbd61462d	-0.054998565
10	0xbcecbb47	-0.028897895
11	0xbd738935	-0.059457023
12	0x3d0fe0d3	0.03512652
13	0x3b8185fd	0.00395274
14	0xbc9a1551	-0.018808993
15	0xbd9d7b6b	-0.07689556
16	0xbc1885b1	-0.009309218
17	0xbdc55443	-0.09635212
18	0x3d3d8ffc	0.046279892
19	0x3c35f130	0.011104867
20	0x3d775e89	0.06039289
21	0xbc0397d3	-0.008031803
22	0x3de9dd24	0.11419132
23	0xbde5ad6e	-0.1121472
24	0xbb814cdf	-0.0039459313
25	0xbcd5e423	-0.02610976
26	0x3d81e4ef	0.06342494
27	0x3c25db65	0.0101231085
28	0xbbe639cb	-0.0070259324
29	0xbd0a3555	-0.033742268
30	0xbd208d85	-0.039197464
31	0x3db6f2ea	0.08933051
32	0xbbc61b6d	-0.00604575
33	0xbd610bfb	-0.054943066
34	0xbd324ecb	-0.043532174
35	0xbde61da5	-0.11236123
36	0xbca03ae0	-0.019559324
37	0xbd9aa34b	-0.07550677
